boris.pth (torch, 8116 bytes, 6 tensors)

model.0.weight f4 [24, 30]
0	0x3e563f01	0.20922472
1	0xbdb01a39	-0.085987516
2	0xbe36d71f	-0.178555
3	0xbeaf229b	-0.3420609
4	0x3f709846	0.9398235
5	0x3e02749c	0.12739795
6	0x3e5d882b	0.21633975
7	0xbd7458c8	-0.05965498
8	0xc0076a3a	-2.1158586
9	0x3fb5df43	1.4208759
10	0xbf66b01a	-0.9011246
11	0x3e8f7587	0.28019354
12	0x3e787e42	0.24266914
13	0xbd8649a8	-0.065570176
14	0x3e0226cc	0.12710112
15	0xbfd01100	-1.6255188
16	0x3f06652a	0.52498114
17	0xbee9c274	-0.45656168
18	0x3eabdb61	0.3356581
19	0xbd799dbf	-0.060941454
20	0xc01c90b8	-2.446333
21	0x400907db	2.1411045
22	0x3f11c3d9	0.56939465
23	0xbf8b8534	-1.0900025
24	0x3e0515e2	0.12996629
25	0xbe207c93	-0.15672521
26	0xbf25e2b5	-0.6479905
27	0xbe3273fc	-0.17427057
28	0xbde4a40a	-0.111641005
29	0x3cf6c38f	0.030122546
30	0x3eb021ba	0.3440073
31	0x3d4a4d6f	0.049390253
32	0xc0949b85	-4.6439843
33	0x3f3e21e0	0.7427044
34	0xbf879238	-1.0591497
35	0xbe042090	-0.12903047
36	0x3dd7d18a	0.10538013
37	0x3df87154	0.121309906
38	0xc04adcdc	-3.1697302
39	0x40310325	2.765817
40	0x3e861ffb	0.26196274
41	0xc0016041	-2.0214999
42	0x3e95a016	0.29223698
43	0x3db6030c	0.088873
44	0xc0345306	-2.8175673
45	0x3f9bb092	1.216326
46	0xbfddfcdc	-1.7342792
47	0xc054486d	-3.3169205
48	0x3ea3fd36	0.32029122
49	0x3e3caf3a	0.18426219
50	0x3e4a41c9	0.19751658
51	0xbe7e32de	-0.24824092
52	0x3f1ae341	0.6050301
53	0xbe887c17	-0.26657173
54	0x3e94067d	0.289112
55	0x3e92cd09	0.28672054
56	0x3f03b078	0.51441145
57	0xbefaf70e	-0.49016613
58	0x3f21bf47	0.6318249
59	0xbf1637f8	-0.5867915
60	0x3e14c4bc	0.14528173
61	0x3df2c2c2	0.11853553
62	0x3f1a04d9	0.60163647
63	0xbee405ac	-0.44535577
64	0x3f9753a7	1.1822404
65	0xbe831aff	-0.25606534
66	0x3df9a872	0.121903315
67	0x3e485250	0.1956265
68	0xbffba0ec	-1.9658484
69	0x3f8a95e8	1.0826998
70	0xbf2ce6fc	-0.67539954
71	0xbf61199e	-0.87929714
72	0x3d46a1a9	0.048494015
73	0x3e866ce2	0.26254946
74	0xbeae533e	-0.34047884
75	0xbfd77e3f	-1.6835402
76	0x3f5af699	0.8553253
77	0x3e5ddaed	0.21665545
78	0x3e285061	0.16436912
79	0x3d834435	0.06409494
80	0xbf914f3c	-1.1352305
81	0x400ea51b	2.2288272
82	0x3f0d5396	0.55205667
83	0xbd2e8532	-0.042607494
84	0x3e9c08d5	0.30475488
85	0xbc0aca92	-0.008471148
86	0x3d5d9df4	0.054105714
87	0xbe27521e	-0.16339919
88	0xbd4e2b6c	-0.05033438
89	0x3f029284	0.51004815
90	0xbee7007b	-0.45117554
91	0xbec4301f	-0.38317963
92	0x40183b8b	2.3786342
93	0xbf5fb823	-0.87390345
94	0x3f76ee89	0.96457726
95	0xc01f8dc2	-2.4930272
96	0xbeb8a92a	-0.36066562
97	0xbe2c5519	-0.16829337
98	0x3fb3a782	1.4035494
99	0xbfe79042	-1.8090899
100	0x3fe44286	1.7832801
101	0xbe8ade24	-0.27122605
102	0xbec074b5	-0.3758904
103	0xbeaaadde	-0.33335775
104	0x3f00d783	0.50328845
105	0x3f6729e5	0.902983
106	0x3fbf00ef	1.492216
107	0x3f3310b1	0.69947344
108	0xbeebdb8c	-0.46065938
109	0xbe7441e0	-0.23853254
110	0x3f0a3a6d	0.539954
111	0xc037174b	-2.8607967
112	0xbe07bb8e	-0.1325514
113	0x3f5a5771	0.85289675
114	0xbebcbcc6	-0.36862773
115	0xbe998450	-0.2998376
116	0x3f8db482	1.1070712
117	0x3e21f66b	0.15816657
118	0x3e3fae41	0.18718816
119	0x3e97f490	0.29678774
120	0x3e91edcf	0.28501746
121	0x3dd5e9d4	0.1044499
122	0xbdd072ff	-0.10178184
123	0xbc682895	-0.014169832
124	0xbc2edcb9	-0.010672742
125	0xbbcfffad	-0.0063476176
126	0x3ea15c4f	0.31515738
127	0x3dbf050c	0.093271345
128	0x3b1a2761	0.0023522007
129	0xbd6831cb	-0.05668811
130	0x3beece4f	0.0072877775
131	0xbccd809c	-0.02508574
132	0x3e972efb	0.2952803
133	0x3c58e952	0.013239222
134	0x3c55cafa	0.013048882
135	0xbcfca225	-0.030839035
136	0xbccd5556	-0.025065105
137	0x3dc5d764	0.09660223
138	0x3e6174fd	0.22017284
139	0x3e155219	0.14582099
140	0xbc0bdb3f	-0.008536159
141	0x3d8a1168	0.06741601
142	0x3b7b67d0	0.0038361438
143	0xbe840744	-0.25786793
144	0x3e690176	0.22754464
145	0xbe02ac4d	-0.1276104
146	0x3d02b6ca	0.031912602
147	0x3d4739a3	0.04863895
148	0x3cafb1c6	0.021447074
149	0xbe737041	-0.2377329
150	0xbde95421	-0.113929994
151	0x3e00df87	0.12585269
152	0x3f851405	1.0396734
153	0x3fa9a67e	1.3253934
154	0xbef489e2	-0.47761446
155	0x3d24b2b2	0.04020948
156	0xbd0fb4ce	-0.03508454
157	0x3ec03ddc	0.37547195
158	0x3f141d34	0.5785706
159	0xbf4f2251	-0.8091174
160	0x3eb6984f	0.35663077
161	0xbf12768a	-0.57212126
162	0xbddd4629	-0.108043976
163	0x3eafc4d0	0.34329844
164	0xbe5989dd	-0.21243997
165	0x401d0606	2.4534926
166	0xbeaa67c8	-0.33282304
167	0x3fbd00f0	1.4765911
168	0x3d1aa59a	0.037755586
169	0x3e7ac8d2	0.2449067
170	0x3fcce035	1.6005923
171	0xbf00573b	-0.50133103
172	0xbed6f51e	-0.41983885
173	0xbbb40536	-0.0054937853
174	0x3e55930c	0.20856875
175	0x3eab4e66	0.3345825
176	0xbfb26c79	-1.3939353
177	0x3ec915a6	0.3927433
178	0xbe88838e	-0.26662868
179	0xbff2acca	-1.8958981
180	0x3e2715c8	0.16316903
181	0xbefcc039	-0.49365404
182	0xbfc811ab	-1.5630392
183	0xbea8c4db	-0.3296269
184	0x3f34da35	0.7064546
185	0x3f1065fe	0.5640563
186	0x3e98205a	0.29712182
187	0xbf0cac08	-0.5495
188	0xbf2bc66e	-0.67099655
189	0xc051c2dc	-3.2775183
190	0x401024ea	2.252253
191	0x3ec2ca1c	0.38044822
192	0x3d4fd04e	0.050735764
193	0xbf154d96	-0.5832151
194	0xbee04660	-0.43803692
195	0x3f264d12	0.6496135
196	0x3d89e16f	0.06732451
197	0xbee5cfef	-0.44885203
198	0x3c65264b	0.013986181
199	0xbf36a3af	-0.7134351
200	0xbf1c9454	-0.6116383
201	0xc08feff3	-4.4980407
202	0xbf1a37a2	-0.6024114
203	0xbf54735d	-0.8298853
204	0x3dacba2e	0.084339485
205	0xbf01e5d9	-0.50741345
206	0xbfa777bd	-1.3083416
207	0xbfd3f8a7	-1.6560258
208	0xbeb11029	-0.34582642
209	0x3f0c780e	0.5487069
210	0xbf42d109	-0.7610021
211	0x3f24feec	0.6445148
212	0xbf8bd90f	-1.0925616
213	0x3ee555a3	0.44791898
214	0x3fbb03c9	1.461053
215	0x3e81c3b6	0.25344628
216	0xbf0196a2	-0.5062047
217	0x3f0727ce	0.5279511
218	0x3f0163e3	0.5054304
219	0xc0147d5f	-2.320152
220	0x3ff3f85c	1.9060168
221	0x3f0da7a4	0.55333924
222	0xbf40e00e	-0.7534188
223	0x3f0f4c40	0.55975723
224	0xbf83b9d5	-1.0291086
225	0x3feefcac	1.8670859
226	0x3e6175ea	0.22017637
227	0xbf823ba9	-1.0174457
228	0xbf0fbad8	-0.56144476
229	0x3f0f1a8d	0.5589989
230	0x3ef30057	0.47461197
231	0x3ff15e13	1.8856834
232	0xbf3fa35e	-0.74858654
233	0x3e17c0d4	0.14819652
234	0xbf249602	-0.64291394
235	0x3eefd2cf	0.46840522
236	0xbf8fe852	-1.1242774
237	0xbe2d7cb7	-0.16942106
238	0x3f0092ce	0.50224006
239	0x3dbac0ad	0.09118781
240	0x3d53bc44	0.051693216
241	0x3d4c2cff	0.0498476
242	0x3e363426	0.1779333
243	0x4081ee7f	4.0603633
244	0xbf25d5af	-0.6477918
245	0x3f2184e8	0.63093424
246	0x3dd3377e	0.10313319
247	0x3d09d52b	0.03365056
248	0x3daf1969	0.085497685
249	0x4003c11f	2.0586622
250	0x3dcd4af2	0.1002406
251	0xbf476c2f	-0.7789945
252	0xbe18ad8b	-0.14909951
253	0xbdc5a841	-0.096512325
254	0x3f678488	0.904366
255	0x4097b8ee	4.7413244

model.0.bias f4 [24]
0	0x3e2d482c	0.16922063
1	0xbd98c16e	-0.07458769
2	0x3df27d87	0.11840349
3	0xbcebd1a2	-0.028786484
4	0xbe9d4aac	-0.30721033
5	0x3ce6762a	0.028132517
6	0x3ecb61ef	0.39723155
7	0xbec9294f	-0.39289328
8	0x3e937c66	0.28805846
9	0xbea5e6c0	-0.3240261
10	0x3e02ad3e	0.12761399
11	0x3eca195b	0.3947247
12	0xbeb3b67c	-0.35100162
13	0xbef1fef5	-0.4726483
14	0xbd2fa5da	-0.042882778
15	0x3e223989	0.1584226
16	0xbe695461	-0.22786094
17	0x3e8d4207	0.27589437
18	0x3d92b1a6	0.0716279
19	0x3f53ac7c	0.82685065
20	0xbe6c6421	-0.23085071
21	0x3cde7643	0.027156001
22	0x3f85f8e4	1.046658
23	0x3ddc0b69	0.10744364

model.2.weight f4 [24, 24]
0	0xbd0f3a66	-0.034967802
1	0xbc436f01	-0.011928321
2	0xbdfca077	-0.12335294
3	0xbb16d22c	-0.0023013456
4	0xc006647a	-2.0998826
5	0xbd6908ae	-0.056893043
6	0xbc979ee2	-0.018508378
7	0x3d5912ea	0.052996553
8	0x3cd9cd46	0.02658714
9	0xbd3209a7	-0.043466236
10	0xbd2365a2	-0.039891846
11	0xbfd07512	-1.6285727
12	0xbb8fe98c	-0.0043918546
13	0xbd1ffce7	-0.039059546
14	0x3ecd7b03	0.40132913
15	0xbe11a822	-0.14224294
16	0x3d1f5347	0.03889778
17	0xbeb68ac9	-0.3565276
18	0x3e3a8538	0.18214881
19	0x3c4875dc	0.012235131
20	0xc00977a4	-2.1479273
21	0x3c145f82	0.009055974
22	0x3f229b2e	0.63518035
23	0xbcdbcb64	-0.026830383
24	0x3df41a91	0.1191913
25	0xbddb5f3f	-0.10711526
26	0xbe8111c0	-0.25208855
27	0x3d737008	0.059433013
28	0xbdba9cc5	-0.09111933
29	0xbdec21f8	-0.115299165
30	0x3b6e5a16	0.0036369613
31	0xbe32f1e9	-0.17475094
32	0xbe896c6a	-0.26840526
33	0xbdc78eb5	-0.09744016
34	0x3e126053	0.14294557
35	0x3b4e861b	0.0031513039
36	0x3d2560c7	0.040375497
37	0x3d9d9317	0.07694071
38	0x3e583fe3	0.21118121
39	0x3db5bb6a	0.08873637
40	0xbd8bac80	-0.06820011
41	0x3daf32a6	0.08554582
42	0xbe37fe1e	-0.17968032
43	0xbe972230	-0.2951827
44	0xbe0814e3	-0.13289218
45	0x3ded65eb	0.11591705
46	0x3f1085ef	0.56454366
47	0xbdbcbd55	-0.092158
48	0x3d9328af	0.07185494
49	0xbc80a90e	-0.015705612
50	0xbdb7f83c	-0.08982894
51	0xbddf4cfa	-0.10903354
52	0xbe90f07d	-0.28308478
53	0xbee9bcbf	-0.45651814
54	0x3cc19f86	0.023635637
55	0xbd433d12	-0.047665663
56	0x3d05d2e8	0.03267184
57	0xbea16d6b	-0.31528792
58	0xbdd4816e	-0.10376249
59	0xbea9bf6a	-0.3315385
60	0xbe0eabca	-0.1393272
61	0xbd634e76	-0.055494748
62	0xbdbd564f	-0.09244978
63	0xbe513b70	-0.2043283
64	0xbec20df0	-0.37901258
65	0x3eb85b19	0.36007002
66	0xbdd4f55c	-0.10398361
67	0xbe3a42ba	-0.18189517
68	0x3dbaabec	0.09114823
69	0x3c9c5557	0.019083662
70	0xbde76c15	-0.11299912
71	0xbcf52986	-0.029927026
72	0x3eaa6ccb	0.33286127
73	0xbe8c6a6a	-0.27424937
74	0x3b7e67aa	0.0038819113
75	0xbe09adf9	-0.13445272
76	0x3ea67829	0.3251355
77	0x3e81482c	0.25250375
78	0x3d5d2f55	0.054000217
79	0xbe0cece9	-0.13762249
80	0xbdbfc531	-0.09363783
81	0xbc8ef922	-0.01745278
82	0xbc528b5b	-0.012850608
83	0xbdf7fd9a	-0.121089175
84	0xbcf8eea9	-0.03038724
85	0x3e84eebd	0.25963393
86	0xbe3ec01f	-0.18627976
87	0x3e1b60bf	0.15173624
88	0x3dec6b47	0.11543899
89	0xbf0b7bbb	-0.5448567
90	0xbdfecfc2	-0.124419704
91	0xbe23b221	-0.1598592
92	0xbee62d82	-0.44956595
93	0xbda9020f	-0.08252346
94	0x3f18ecb2	0.5973617
95	0xbe174730	-0.1477325
96	0x3d2d4d22	0.042309888
97	0x3d5b36b6	0.053518973
98	0xbe4964fb	-0.19667427
99	0x3e2ef437	0.17085348
100	0xbd0ff5c7	-0.0351465
101	0xbec7423c	-0.3891772
102	0xbe4c0637	-0.19924246
103	0xbddc2968	-0.10750085
104	0x3d1632b1	0.036669437
105	0xbc42a6ef	-0.01188062
106	0xbe90f170	-0.28309202
107	0xbf370971	-0.7149878
108	0xbecb41b7	-0.39698574
109	0xbed485bf	-0.4150829
110	0xbd132efe	-0.035933487
111	0xbe30e986	-0.17276582
112	0xbeceaffd	-0.40368643
113	0xbe4c17f9	-0.1993102
114	0xbec52893	-0.38507518
115	0xbee48b2b	-0.44637427
116	0xbdf80631	-0.12110556
117	0xbe513dfd	-0.20433803
118	0x3edcf7e4	0.43157876
119	0xbe243bf8	-0.16038501
120	0xbe01a1eb	-0.12659423
121	0x3c6a6481	0.014306189
122	0x3d65338b	0.05595736
123	0xbe4bb2e6	-0.19892463
124	0x3d33e9b3	0.043924045
125	0xbe40513c	-0.18780988
126	0xbe20950c	-0.15681857
127	0xbe0b6768	-0.13613665
128	0xbe4a4344	-0.19752222
129	0xbd5c166e	-0.053732328
130	0x3c160f41	0.00915891
131	0xbe60a823	-0.21939139
132	0xbe438494	-0.19093543
133	0xbe4f73b0	-0.20258975
134	0x3d9c5c73	0.07634821
135	0xbd40fbb6	-0.04711505
136	0xbded445c	-0.11585304
137	0xbe50176c	-0.20321435
138	0xbd8e44f6	-0.06946747
139	0xbe324f79	-0.17413129
140	0xbdf98084	-0.121827155
141	0xbdb87e5a	-0.09008475
142	0x3bca292f	0.0061694602
143	0x3c278d9e	0.010226635
144	0xbeff5b1a	-0.49874192
145	0x3dd88d3d	0.10573814
146	0x3eeba83d	0.46026793
147	0xbfb1929b	-1.3872865
148	0x3f021225	0.50808936
149	0xbf2a16ae	-0.66440856
150	0xbf91af83	-1.1381687
151	0xbea63f6a	-0.32470256
152	0xbe6b65fb	-0.22988121
153	0x3e2c1896	0.16806254
154	0x3ccdef1f	0.025138436
155	0xbdb90655	-0.09034411
156	0xbe0536f2	-0.13009241
157	0xbfb6129f	-1.4224433
158	0x3e90ecb8	0.28305602
159	0xbe1816a9	-0.14852394
160	0x3f0e41c9	0.5556913
161	0xbf3ee083	-0.7456133
162	0xbeb01052	-0.3438745
163	0x3e942cf7	0.28940555
164	0xbee90fff	-0.45520017
165	0xbc171440	-0.009221137
166	0xbdb25dc1	-0.087092884
167	0xbd5861d6	-0.05282768
168	0x3d19856c	0.037480757
169	0xbe02b592	-0.12764576
170	0x3d7ea366	0.062167548
171	0xbd09f640	-0.033682108
172	0x3e217349	0.15766634
173	0xbe212bf5	-0.15739425
174	0xbe5b6e57	-0.2142881
175	0x3d911c3d	0.07085464
176	0xbe3b0bea	-0.18266264
177	0xbe2cf8a2	-0.16891721
178	0xb98dad43	-0.00027022706
179	0x3da7d224	0.08194378
180	0xbd55fb32	-0.05224151
181	0xbeb41999	-0.3517578
182	0xbe5f43a6	-0.2180315
183	0xbea4a73e	-0.32158846
184	0xbb0cb0ee	-0.0021467763
185	0xbe30c576	-0.17262825
186	0xbd584965	-0.05280437
187	0xbddad3ec	-0.10684952
188	0xbd223d6b	-0.039609354
189	0xbd180e22	-0.037122853
190	0xbce22f2b	-0.027610382
191	0xbe8e1052	-0.27746826
192	0xbd9684f3	-0.07349577
193	0x3ec45d63	0.38352498
194	0x3db9c730	0.09071195
195	0x3e30647e	0.17225835
196	0x3ec3f1af	0.38270327
197	0xbf9871c1	-1.1909715
198	0xbe97bdea	-0.2963708
199	0xbec223f2	-0.3791805
200	0x3e8306e8	0.25591207
201	0x3f08f721	0.5350209
202	0xbe91e73c	-0.2849673
203	0xbf2ba3bc	-0.67046714
204	0xbebac514	-0.36478484
205	0xbf5d8433	-0.86529845
206	0xbeeaa086	-0.45825595
207	0x3ea6bb06	0.32564563
208	0x3eb53cbb	0.35397896
209	0xbf91453e	-1.1349256
210	0xbfd20cb9	-1.6410133
211	0xbfa696e4	-1.3014798
212	0xbdd95109	-0.10611159
213	0x3e362457	0.177873
214	0xbf2c6384	-0.6733935
215	0xbf8a6d7d	-1.0814663
216	0x3f204ca6	0.62616956
217	0xbdbe4e63	-0.09292295
218	0x3e9c3121	0.30506232
219	0xbf7e8375	-0.9941934
220	0x3e8b1f14	0.27172148
221	0x3d01b542	0.031667
222	0xc1074173	-8.453479
223	0xc060d3a4	-3.5129175
224	0xc0b7ecbe	-5.747649
225	0x3eacd3fc	0.3375548
226	0xbfd57937	-1.6677617
227	0x3e4c1c5b	0.19932692
228	0xbe66380a	-0.22482315
229	0x3eacbdb3	0.3373848
230	0x3c2c4534	0.010514546
231	0x3eb569fb	0.3543242
232	0xbe9c8fc2	-0.30578429
233	0xbe746393	-0.2386611
234	0xbd369187	-0.04457238
235	0xc084c38f	-4.148872
236	0x3e27a954	0.16373187
237	0x3f3933be	0.7234458
238	0x3d8c13a9	0.068396874
239	0xbe93e843	-0.2888814
240	0xb8cdeb28	-9.818963e-05
241	0xbb25493e	-0.0025220658
242	0x3aae8bae	0.0013316774
243	0xb9bd9283	-0.0003615805
244	0x3f0b1b50	0.5433855
245	0xba8570c4	-0.0010180702
246	0xb897406e	-7.212242e-05
247	0x394adb25	0.00019345859
248	0xb9f3b559	-0.00046483686
249	0x3bf3dcd5	0.0074420967
250	0x3a7293d0	0.0009253593
251	0x3a231e2a	0.00062224513
252	0x3b427612	0.0029672426
253	0x3b5af710	0.003341142
254	0xbdf9ec40	-0.12203264
255	0xba386c52	-0.0007035184

model.2.bias f4 [24]
0	0xbf123627	-0.5711388
1	0xbd0a4392	-0.033755846
2	0xbec89001	-0.39172366
3	0xbcaf458b	-0.021395465
4	0xbed4ce34	-0.4156357
5	0xbe06dd3a	-0.13170329
6	0xbd462df2	-0.04838366
7	0xbe6e4a0b	-0.23270433
8	0xbf728902	-0.9474031
9	0x3e1dfddc	0.15428871
10	0x3e64bcbe	0.22337624
11	0x3f400a1d	0.7501543
12	0x3eca22d7	0.39479706
13	0xbdce81a8	-0.10083324
14	0x3ee979a7	0.45600626
15	0xbd9e33ca	-0.07724722
16	0xbe94cd13	-0.2906271
17	0xbe29115e	-0.16510531
18	0xbdff4219	-0.12463779
19	0x3d86a11b	0.06573697
20	0x3db9ae35	0.090664305
21	0xbd7267e4	-0.05918111
22	0xbd9cd6a8	-0.0765813
23	0x3d6be1ce	0.05758839

model.4.weight f4 [3, 24]
0	0xbe505ecc	-0.20348662
1	0x3b14f249	0.002272742
2	0xbc625777	-0.013814799
3	0xbbb78447	-0.0056004855
4	0xbc3af808	-0.011411674
5	0xbda76547	-0.08173614
6	0x3c0df6b0	0.008664772
7	0xbdccac4a	-0.09993799
8	0x3bca9cba	0.006183234
9	0xbc650f0c	-0.013980638
10	0x3eecc6a9	0.46245316
11	0xbc66473e	-0.014055071
12	0x3bca09af	0.006165705
13	0x3e07ac2e	0.13249275
14	0xbb8940fa	-0.004188654
15	0xbc498e60	-0.012302011
16	0x3c7d7320	0.0154693425
17	0xbc451e44	-0.012031142
18	0x3b2970ef	0.0025854667
19	0xbce94c21	-0.028478684
20	0xbe47f2cd	-0.19526215
21	0x3d8800ee	0.06640802
22	0x3b2ba05d	0.0026188113
23	0x3c749d2f	0.014930054
24	0x3cbdce14	0.023169555
25	0x3c71b083	0.014751556
26	0xbcdcd837	-0.026958568
27	0xbb857e01	-0.0040738587
28	0xbd101ed4	-0.03518565
29	0xbd350a2e	-0.04419916
30	0xbb2f2485	-0.0026724648
31	0xbc2ae95f	-0.010431617
32	0xbc0f05a6	-0.008729374
33	0xbc6d90a9	-0.014499822
34	0xbd6bd5ab	-0.057576817
35	0xbc46e765	-0.01214013
36	0xba7c82b4	-0.00096325134
37	0xbc0eda71	-0.008719073
38	0xbb000469	-0.0019533879
39	0xbb5ae5be	-0.0033401097
40	0x3c398314	0.011322755
41	0x3c545344	0.012959305
42	0xbc3ac90e	-0.011400474
43	0xbc5cae0a	-0.0134692285
44	0x3ca29b5e	0.019849475
45	0x3c7639f1	0.015028463
46	0x3ee537bf	0.44769093
47	0x368a3980	4.1194144e-06
48	0xbca4ccfb	-0.020117274
49	0xbc31d4e0	-0.010853976
50	0xbc6b13fe	-0.014348028
51	0xbc9e5177	-0.019325955
52	0x3a21a5c8	0.0006166366
53	0xbc1cdc2c	-0.009573977
54	0x3e42183c	0.18954557
55	0x3e3467f4	0.1761778
56	0x3e3ad9ac	0.18247098
57	0x4019fe8a	2.4061608
58	0xbc067a1c	-0.008207824
59	0x406d692e	3.7095447
60	0x3fd4ca88	1.6624308
61	0x40307f95	2.757787
62	0xbd47078f	-0.048591193
63	0x404960ad	3.1465256
64	0xbfb60157	-1.4219159
65	0xba97de7a	-0.0011586689
66	0x3ccb6fa9	0.024833517
67	0xbea9d4a6	-0.3317005
68	0x3f8f2202	1.1182253
69	0x3f734af3	0.9503624
70	0xbbd1d7e1	-0.0064039086
71	0x401f00a4	2.484414

model.4.bias f4 [3]
0	0x3e0b7be1	0.13621475
1	0x3d88fa4d	0.06688366
2	0x3cefe22a	0.029282648
